{"format": "layers-model", "generatedBy": "keras v2.2.4", "convertedBy": "TensorFlow.js Converter v3.7.0", "modelTopology": {"keras_version": "2.2.4", "backend": "tensorflow", "model_config": {"class_name": "Sequential", "config": {"name": "sequential_1", "layers": [{"class_name": "Model", "config": {"name": "mobilenet_0.25_224", "layers": [{"name": "input_1", "class_name": "InputLayer", "config": {"batch_input_shape": [null, 224, 224, 1], "dtype": "float32", "sparse": false, "name": "input_1"}, "inbound_nodes": []}, {"name": "conv1_pad", "class_name": "ZeroPadding2D", "config": {"name": "conv1_pad", "trainable": true, "padding": [[0, 1], [0, 1]], "data_format": "channels_last"}, "inbound_nodes": [[["input_1", 0, 0, {}]]]}, {"name": "conv1", "class_name": "Conv2D", "config": {"name": "conv1", "trainable": true, "filters": 8, "kernel_size": [3, 3], "strides": [2, 2], "padding": "valid", "data_format": "channels_last", "dilation_rate": [1, 1], "activation": "linear", "use_bias": false, "kernel_initializer": {"class_name": "VarianceScaling", "config": {"scale": 1.0, "mode": "fan_avg", "distribution": "uniform", "seed": null}}, "bias_initializer": {"class_name": "Zeros", "config": {}}, "kernel_regularizer": null, "bias_regularizer": null, "activity_regularizer": null, "kernel_constraint": null, "bias_constraint": null}, "inbound_nodes": [[["conv1_pad", 0, 0, {}]]]}, {"name": "conv1_bn", "class_name": "BatchNormalization", "config": {"name": "conv1_bn", "trainable": true, "axis": -1, "momentum": 0.99, "epsilon": 0.001, "center": true, "scale": true, "beta_initializer": {"class_name": "Zeros", "config": {}}, "gamma_initializer": {"class_name": "Ones", "config": {}}, "moving_mean_initializer": {"class_name": "Zeros", "config": {}}, "moving_variance_initializer": {"class_name": "Ones", "config": {}}, "beta_regularizer": null, "gamma_regularizer": null, "beta_constraint": null, "gamma_constraint": null}, "inbound_nodes": [[["conv1", 0, 0, {}]]]}, {"name": "conv1_relu", "class_name": "ReLU", "config": {"name": "conv1_relu", "trainable": true, "max_value": 6.0, "negative_slope": 0.0, "threshold": 0.0}, "inbound_nodes": [[["conv1_bn", 0, 0, {}]]]}, {"name": "conv_dw_1", "class_name": "DepthwiseConv2D", "config": {"name": "conv_dw_1", "trainable": true, "kernel_size": [3, 3], "strides": [1, 1], "padding": "same", "data_format": "channels_last", "dilation_rate": [1, 1], "activation": "linear", "use_bias": false, "bias_initializer": {"class_name": "Zeros", "config": {}}, "bias_regularizer": null, "activity_regularizer": null, "bias_constraint": null, "depth_multiplier": 1, "depthwise_initializer": {"class_name": "VarianceScaling", "config": {"scale": 1.0, "mode": "fan_avg", "distribution": "uniform", "seed": null}}, "depthwise_regularizer": null, "depthwise_constraint": null}, "inbound_nodes": [[["conv1_relu", 0, 0, {}]]]}, {"name": "conv_dw_1_bn", "class_name": "BatchNormalization", "config": {"name": "conv_dw_1_bn", "trainable": true, "axis": -1, "momentum": 0.99, "epsilon": 0.001, "center": true, "scale": true, "beta_initializer": {"class_name": "Zeros", "config": {}}, "gamma_initializer": {"class_name": "Ones", "config": {}}, "moving_mean_initializer": {"class_name": "Zeros", "config": {}}, "moving_variance_initializer": {"class_name": "Ones", "config": {}}, "beta_regularizer": null, "gamma_regularizer": null, "beta_constraint": null, "gamma_constraint": null}, "inbound_nodes": [[["conv_dw_1", 0, 0, {}]]]}, {"name": "conv_dw_1_relu", "class_name": "ReLU", "config": {"name": "conv_dw_1_relu", "trainable": true, "max_value": 6.0, "negative_slope": 0.0, "threshold": 0.0}, "inbound_nodes": [[["conv_dw_1_bn", 0, 0, {}]]]}, {"name": "conv_pw_1", "class_name": "Conv2D", "config": {"name": "conv_pw_1", "trainable": true, "filters": 16, "kernel_size": [1, 1], "strides": [1, 1], "padding": "same", "data_format": "channels_last", "dilation_rate": [1, 1], "activation": "linear", "use_bias": false, "kernel_initializer": {"class_name": "VarianceScaling", "config": {"scale": 1.0, "mode": "fan_avg", "distribution": "uniform", "seed": null}}, "bias_initializer": {"class_name": "Zeros", "config": {}}, "kernel_regularizer": null, "bias_regularizer": null, "activity_regularizer": null, "kernel_constraint": null, "bias_constraint": null}, "inbound_nodes": [[["conv_dw_1_relu", 0, 0, {}]]]}, {"name": "conv_pw_1_bn", "class_name": "BatchNormalization", "config": {"name": "conv_pw_1_bn", "trainable": true, "axis": -1, "momentum": 0.99, "epsilon": 0.001, "center": true, "scale": true, "beta_initializer": {"class_name": "Zeros", "config": {}}, "gamma_initializer": {"class_name": "Ones", "config": {}}, "moving_mean_initializer": {"class_name": "Zeros", "config": {}}, "moving_variance_initializer": {"class_name": "Ones", "config": {}}, "beta_regularizer": null, "gamma_regularizer": null, "beta_constraint": null, "gamma_constraint": null}, "inbound_nodes": [[["conv_pw_1", 0, 0, {}]]]}, {"name": "conv_pw_1_relu", "class_name": "ReLU", "config": {"name": "conv_pw_1_relu", "trainable": true, "max_value": 6.0, "negative_slope": 0.0, "threshold": 0.0}, "inbound_nodes": [[["conv_pw_1_bn", 0, 0, {}]]]}, {"name": "conv_pad_2", "class_name": "ZeroPadding2D", "config": {"name": "conv_pad_2", "trainable": true, "padding": [[0, 1], [0, 1]], "data_format": "channels_last"}, "inbound_nodes": [[["conv_pw_1_relu", 0, 0, {}]]]}, {"name": "conv_dw_2", "class_name": "DepthwiseConv2D", "config": {"name": "conv_dw_2", "trainable": true, "kernel_size": [3, 3], "strides": [2, 2], "padding": "valid", "data_format": "channels_last", "dilation_rate": [1, 1], "activation": "linear", "use_bias": false, "bias_initializer": {"class_name": "Zeros", "config": {}}, "bias_regularizer": null, "activity_regularizer": null, "bias_constraint": null, "depth_multiplier": 1, "depthwise_initializer": {"class_name": "VarianceScaling", "config": {"scale": 1.0, "mode": "fan_avg", "distribution": "uniform", "seed": null}}, "depthwise_regularizer": null, "depthwise_constraint": null}, "inbound_nodes": [[["conv_pad_2", 0, 0, {}]]]}, {"name": "conv_dw_2_bn", "class_name": "BatchNormalization", "config": {"name": "conv_dw_2_bn", "trainable": true, "axis": -1, "momentum": 0.99, "epsilon": 0.001, "center": true, "scale": true, "beta_initializer": {"class_name": "Zeros", "config": {}}, "gamma_initializer": {"class_name": "Ones", "config": {}}, "moving_mean_initializer": {"class_name": "Zeros", "config": {}}, "moving_variance_initializer": {"class_name": "Ones", "config": {}}, "beta_regularizer": null, "gamma_regularizer": null, "beta_constraint": null, "gamma_constraint": null}, "inbound_nodes": [[["conv_dw_2", 0, 0, {}]]]}, {"name": "conv_dw_2_relu", "class_name": "ReLU", "config": {"name": "conv_dw_2_relu", "trainable": true, "max_value": 6.0, "negative_slope": 0.0, "threshold": 0.0}, "inbound_nodes": [[["conv_dw_2_bn", 0, 0, {}]]]}, {"name": "conv_pw_2", "class_name": "Conv2D", "config": {"name": "conv_pw_2", "trainable": true, "filters": 32, "kernel_size": [1, 1], "strides": [1, 1], "padding": "same", "data_format": "channels_last", "dilation_rate": [1, 1], "activation": "linear", "use_bias": false, "kernel_initializer": {"class_name": "VarianceScaling", "config": {"scale": 1.0, "mode": "fan_avg", "distribution": "uniform", "seed": null}}, "bias_initializer": {"class_name": "Zeros", "config": {}}, "kernel_regularizer": null, "bias_regularizer": null, "activity_regularizer": null, "kernel_constraint": null, "bias_constraint": null}, "inbound_nodes": [[["conv_dw_2_relu", 0, 0, {}]]]}, {"name": "conv_pw_2_bn", "class_name": "BatchNormalization", "config": {"name": "conv_pw_2_bn", "trainable": true, "axis": -1, "momentum": 0.99, "epsilon": 0.001, "center": true, "scale": true, "beta_initializer": {"class_name": "Zeros", "config": {}}, "gamma_initializer": {"class_name": "Ones", "config": {}}, "moving_mean_initializer": {"class_name": "Zeros", "config": {}}, "moving_variance_initializer": {"class_name": "Ones", "config": {}}, "beta_regularizer": null, "gamma_regularizer": null, "beta_constraint": null, "gamma_constraint": null}, "inbound_nodes": [[["conv_pw_2", 0, 0, {}]]]}, {"name": "conv_pw_2_relu", "class_name": "ReLU", "config": {"name": "conv_pw_2_relu", "trainable": true, "max_value": 6.0, "negative_slope": 0.0, "threshold": 0.0}, "inbound_nodes": [[["conv_pw_2_bn", 0, 0, {}]]]}, {"name": "conv_dw_3", "class_name": "DepthwiseConv2D", "config": {"name": "conv_dw_3", "trainable": true, "kernel_size": [3, 3], "strides": [1, 1], "padding": "same", "data_format": "channels_last", "dilation_rate": [1, 1], "activation": "linear", "use_bias": false, "bias_initializer": {"class_name": "Zeros", "config": {}}, "bias_regularizer": null, "activity_regularizer": null, "bias_constraint": null, "depth_multiplier": 1, "depthwise_initializer": {"class_name": "VarianceScaling", "config": {"scale": 1.0, "mode": "fan_avg", "distribution": "uniform", "seed": null}}, "depthwise_regularizer": null, "depthwise_constraint": null}, "inbound_nodes": [[["conv_pw_2_relu", 0, 0, {}]]]}, {"name": "conv_dw_3_bn", "class_name": "BatchNormalization", "config": {"name": "conv_dw_3_bn", "trainable": true, "axis": -1, "momentum": 0.99, "epsilon": 0.001, "center": true, "scale": true, "beta_initializer": {"class_name": "Zeros", "config": {}}, "gamma_initializer": {"class_name": "Ones", "config": {}}, "moving_mean_initializer": {"class_name": "Zeros", "config": {}}, "moving_variance_initializer": {"class_name": "Ones", "config": {}}, "beta_regularizer": null, "gamma_regularizer": null, "beta_constraint": null, "gamma_constraint": null}, "inbound_nodes": [[["conv_dw_3", 0, 0, {}]]]}, {"name": "conv_dw_3_relu", "class_name": "ReLU", "config": {"name": "conv_dw_3_relu", "trainable": true, "max_value": 6.0, "negative_slope": 0.0, "threshold": 0.0}, "inbound_nodes": [[["conv_dw_3_bn", 0, 0, {}]]]}, {"name": "conv_pw_3", "class_name": "Conv2D", "config": {"name": "conv_pw_3", "trainable": true, "filters": 32, "kernel_size": [1, 1], "strides": [1, 1], "padding": "same", "data_format": "channels_last", "dilation_rate": [1, 1], "activation": "linear", "use_bias": false, "kernel_initializer": {"class_name": "VarianceScaling", "config": {"scale": 1.0, "mode": "fan_avg", "distribution": "uniform", "seed": null}}, "bias_initializer": {"class_name": "Zeros", "config": {}}, "kernel_regularizer": null, "bias_regularizer": null, "activity_regularizer": null, "kernel_constraint": null, "bias_constraint": null}, "inbound_nodes": [[["conv_dw_3_relu", 0, 0, {}]]]}, {"name": "conv_pw_3_bn", "class_name": "BatchNormalization", "config": {"name": "conv_pw_3_bn", "trainable": true, "axis": -1, "momentum": 0.99, "epsilon": 0.001, "center": true, "scale": true, "beta_initializer": {"class_name": "Zeros", "config": {}}, "gamma_initializer": {"class_name": "Ones", "config": {}}, "moving_mean_initializer": {"class_name": "Zeros", "config": {}}, "moving_variance_initializer": {"class_name": "Ones", "config": {}}, "beta_regularizer": null, "gamma_regularizer": null, "beta_constraint": null, "gamma_constraint": null}, "inbound_nodes": [[["conv_pw_3", 0, 0, {}]]]}, {"name": "conv_pw_3_relu", "class_name": "ReLU", "config": {"name": "conv_pw_3_relu", "trainable": true, "max_value": 6.0, "negative_slope": 0.0, "threshold": 0.0}, "inbound_nodes": [[["conv_pw_3_bn", 0, 0, {}]]]}, {"name": "conv_pad_4", "class_name": "ZeroPadding2D", "config": {"name": "conv_pad_4", "trainable": true, "padding": [[0, 1], [0, 1]], "data_format": "channels_last"}, "inbound_nodes": [[["conv_pw_3_relu", 0, 0, {}]]]}, {"name": "conv_dw_4", "class_name": "DepthwiseConv2D", "config": {"name": "conv_dw_4", "trainable": true, "kernel_size": [3, 3], "strides": [2, 2], "padding": "valid", "data_format": "channels_last", "dilation_rate": [1, 1], "activation": "linear", "use_bias": false, "bias_initializer": {"class_name": "Zeros", "config": {}}, "bias_regularizer": null, "activity_regularizer": null, "bias_constraint": null, "depth_multiplier": 1, "depthwise_initializer": {"class_name": "VarianceScaling", "config": {"scale": 1.0, "mode": "fan_avg", "distribution": "uniform", "seed": null}}, "depthwise_regularizer": null, "depthwise_constraint": null}, "inbound_nodes": [[["conv_pad_4", 0, 0, {}]]]}, {"name": "conv_dw_4_bn", "class_name": "BatchNormalization", "config": {"name": "conv_dw_4_bn", "trainable": true, "axis": -1, "momentum": 0.99, "epsilon": 0.001, "center": true, "scale": true, "beta_initializer": {"class_name": "Zeros", "config": {}}, "gamma_initializer": {"class_name": "Ones", "config": {}}, "moving_mean_initializer": {"class_name": "Zeros", "config": {}}, "moving_variance_initializer": {"class_name": "Ones", "config": {}}, "beta_regularizer": null, "gamma_regularizer": null, "beta_constraint": null, "gamma_constraint": null}, "inbound_nodes": [[["conv_dw_4", 0, 0, {}]]]}, {"name": "conv_dw_4_relu", "class_name": "ReLU", "config": {"name": "conv_dw_4_relu", "trainable": true, "max_value": 6.0, "negative_slope": 0.0, "threshold": 0.0}, "inbound_nodes": [[["conv_dw_4_bn", 0, 0, {}]]]}, {"name": "conv_pw_4", "class_name": "Conv2D", "config": {"name": "conv_pw_4", "trainable": true, "filters": 64, "kernel_size": [1, 1], "strides": [1, 1], "padding": "same", "data_format": "channels_last", "dilation_rate": [1, 1], "activation": "linear", "use_bias": false, "kernel_initializer": {"class_name": "VarianceScaling", "config": {"scale": 1.0, "mode": "fan_avg", "distribution": "uniform", "seed": null}}, "bias_initializer": {"class_name": "Zeros", "config": {}}, "kernel_regularizer": null, "bias_regularizer": null, "activity_regularizer": null, "kernel_constraint": null, "bias_constraint": null}, "inbound_nodes": [[["conv_dw_4_relu", 0, 0, {}]]]}, {"name": "conv_pw_4_bn", "class_name": "BatchNormalization", "config": {"name": "conv_pw_4_bn", "trainable": true, "axis": -1, "momentum": 0.99, "epsilon": 0.001, "center": true, "scale": true, "beta_initializer": {"class_name": "Zeros", "config": {}}, "gamma_initializer": {"class_name": "Ones", "config": {}}, "moving_mean_initializer": {"class_name": "Zeros", "config": {}}, "moving_variance_initializer": {"class_name": "Ones", "config": {}}, "beta_regularizer": null, "gamma_regularizer": null, "beta_constraint": null, "gamma_constraint": null}, "inbound_nodes": [[["conv_pw_4", 0, 0, {}]]]}, {"name": "conv_pw_4_relu", "class_name": "ReLU", "config": {"name": "conv_pw_4_relu", "trainable": true, "max_value": 6.0, "negative_slope": 0.0, "threshold": 0.0}, "inbound_nodes": [[["conv_pw_4_bn", 0, 0, {}]]]}, {"name": "conv_dw_5", "class_name": "DepthwiseConv2D", "config": {"name": "conv_dw_5", "trainable": true, "kernel_size": [3, 3], "strides": [1, 1], "padding": "same", "data_format": "channels_last", "dilation_rate": [1, 1], "activation": "linear", "use_bias": false, "bias_initializer": {"class_name": "Zeros", "config": {}}, "bias_regularizer": null, "activity_regularizer": null, "bias_constraint": null, "depth_multiplier": 1, "depthwise_initializer": {"class_name": "VarianceScaling", "config": {"scale": 1.0, "mode": "fan_avg", "distribution": "uniform", "seed": null}}, "depthwise_regularizer": null, "depthwise_constraint": null}, "inbound_nodes": [[["conv_pw_4_relu", 0, 0, {}]]]}, {"name": "conv_dw_5_bn", "class_name": "BatchNormalization", "config": {"name": "conv_dw_5_bn", "trainable": true, "axis": -1, "momentum": 0.99, "epsilon": 0.001, "center": true, "scale": true, "beta_initializer": {"class_name": "Zeros", "config": {}}, "gamma_initializer": {"class_name": "Ones", "config": {}}, "moving_mean_initializer": {"class_name": "Zeros", "config": {}}, "moving_variance_initializer": {"class_name": "Ones", "config": {}}, "beta_regularizer": null, "gamma_regularizer": null, "beta_constraint": null, "gamma_constraint": null}, "inbound_nodes": [[["conv_dw_5", 0, 0, {}]]]}, {"name": "conv_dw_5_relu", "class_name": "ReLU", "config": {"name": "conv_dw_5_relu", "trainable": true, "max_value": 6.0, "negative_slope": 0.0, "threshold": 0.0}, "inbound_nodes": [[["conv_dw_5_bn", 0, 0, {}]]]}, {"name": "conv_pw_5", "class_name": "Conv2D", "config": {"name": "conv_pw_5", "trainable": true, "filters": 64, "kernel_size": [1, 1], "strides": [1, 1], "padding": "same", "data_format": "channels_last", "dilation_rate": [1, 1], "activation": "linear", "use_bias": false, "kernel_initializer": {"class_name": "VarianceScaling", "config": {"scale": 1.0, "mode": "fan_avg", "distribution": "uniform", "seed": null}}, "bias_initializer": {"class_name": "Zeros", "config": {}}, "kernel_regularizer": null, "bias_regularizer": null, "activity_regularizer": null, "kernel_constraint": null, "bias_constraint": null}, "inbound_nodes": [[["conv_dw_5_relu", 0, 0, {}]]]}, {"name": "conv_pw_5_bn", "class_name": "BatchNormalization", "config": {"name": "conv_pw_5_bn", "trainable": true, "axis": -1, "momentum": 0.99, "epsilon": 0.001, "center": true, "scale": true, "beta_initializer": {"class_name": "Zeros", "config": {}}, "gamma_initializer": {"class_name": "Ones", "config": {}}, "moving_mean_initializer": {"class_name": "Zeros", "config": {}}, "moving_variance_initializer": {"class_name": "Ones", "config": {}}, "beta_regularizer": null, "gamma_regularizer": null, "beta_constraint": null, "gamma_constraint": null}, "inbound_nodes": [[["conv_pw_5", 0, 0, {}]]]}, {"name": "conv_pw_5_relu", "class_name": "ReLU", "config": {"name": "conv_pw_5_relu", "trainable": true, "max_value": 6.0, "negative_slope": 0.0, "threshold": 0.0}, "inbound_nodes": [[["conv_pw_5_bn", 0, 0, {}]]]}, {"name": "conv_pad_6", "class_name": "ZeroPadding2D", "config": {"name": "conv_pad_6", "trainable": true, "padding": [[0, 1], [0, 1]], "data_format": "channels_last"}, "inbound_nodes": [[["conv_pw_5_relu", 0, 0, {}]]]}, {"name": "conv_dw_6", "class_name": "DepthwiseConv2D", "config": {"name": "conv_dw_6", "trainable": true, "kernel_size": [3, 3], "strides": [2, 2], "padding": "valid", "data_format": "channels_last", "dilation_rate": [1, 1], "activation": "linear", "use_bias": false, "bias_initializer": {"class_name": "Zeros", "config": {}}, "bias_regularizer": null, "activity_regularizer": null, "bias_constraint": null, "depth_multiplier": 1, "depthwise_initializer": {"class_name": "VarianceScaling", "config": {"scale": 1.0, "mode": "fan_avg", "distribution": "uniform", "seed": null}}, "depthwise_regularizer": null, "depthwise_constraint": null}, "inbound_nodes": [[["conv_pad_6", 0, 0, {}]]]}, {"name": "conv_dw_6_bn", "class_name": "BatchNormalization", "config": {"name": "conv_dw_6_bn", "trainable": true, "axis": -1, "momentum": 0.99, "epsilon": 0.001, "center": true, "scale": true, "beta_initializer": {"class_name": "Zeros", "config": {}}, "gamma_initializer": {"class_name": "Ones", "config": {}}, "moving_mean_initializer": {"class_name": "Zeros", "config": {}}, "moving_variance_initializer": {"class_name": "Ones", "config": {}}, "beta_regularizer": null, "gamma_regularizer": null, "beta_constraint": null, "gamma_constraint": null}, "inbound_nodes": [[["conv_dw_6", 0, 0, {}]]]}, {"name": "conv_dw_6_relu", "class_name": "ReLU", "config": {"name": "conv_dw_6_relu", "trainable": true, "max_value": 6.0, "negative_slope": 0.0, "threshold": 0.0}, "inbound_nodes": [[["conv_dw_6_bn", 0, 0, {}]]]}, {"name": "conv_pw_6", "class_name": "Conv2D", "config": {"name": "conv_pw_6", "trainable": true, "filters": 128, "kernel_size": [1, 1], "strides": [1, 1], "padding": "same", "data_format": "channels_last", "dilation_rate": [1, 1], "activation": "linear", "use_bias": false, "kernel_initializer": {"class_name": "VarianceScaling", "config": {"scale": 1.0, "mode": "fan_avg", "distribution": "uniform", "seed": null}}, "bias_initializer": {"class_name": "Zeros", "config": {}}, "kernel_regularizer": null, "bias_regularizer": null, "activity_regularizer": null, "kernel_constraint": null, "bias_constraint": null}, "inbound_nodes": [[["conv_dw_6_relu", 0, 0, {}]]]}, {"name": "conv_pw_6_bn", "class_name": "BatchNormalization", "config": {"name": "conv_pw_6_bn", "trainable": true, "axis": -1, "momentum": 0.99, "epsilon": 0.001, "center": true, "scale": true, "beta_initializer": {"class_name": "Zeros", "config": {}}, "gamma_initializer": {"class_name": "Ones", "config": {}}, "moving_mean_initializer": {"class_name": "Zeros", "config": {}}, "moving_variance_initializer": {"class_name": "Ones", "config": {}}, "beta_regularizer": null, "gamma_regularizer": null, "beta_constraint": null, "gamma_constraint": null}, "inbound_nodes": [[["conv_pw_6", 0, 0, {}]]]}, {"name": "conv_pw_6_relu", "class_name": "ReLU", "config": {"name": "conv_pw_6_relu", "trainable": true, "max_value": 6.0, "negative_slope": 0.0, "threshold": 0.0}, "inbound_nodes": [[["conv_pw_6_bn", 0, 0, {}]]]}, {"name": "conv_dw_7", "class_name": "DepthwiseConv2D", "config": {"name": "conv_dw_7", "trainable": true, "kernel_size": [3, 3], "strides": [1, 1], "padding": "same", "data_format": "channels_last", "dilation_rate": [1, 1], "activation": "linear", "use_bias": false, "bias_initializer": {"class_name": "Zeros", "config": {}}, "bias_regularizer": null, "activity_regularizer": null, "bias_constraint": null, "depth_multiplier": 1, "depthwise_initializer": {"class_name": "VarianceScaling", "config": {"scale": 1.0, "mode": "fan_avg", "distribution": "uniform", "seed": null}}, "depthwise_regularizer": null, "depthwise_constraint": null}, "inbound_nodes": [[["conv_pw_6_relu", 0, 0, {}]]]}, {"name": "conv_dw_7_bn", "class_name": "BatchNormalization", "config": {"name": "conv_dw_7_bn", "trainable": true, "axis": -1, "momentum": 0.99, "epsilon": 0.001, "center": true, "scale": true, "beta_initializer": {"class_name": "Zeros", "config": {}}, "gamma_initializer": {"class_name": "Ones", "config": {}}, "moving_mean_initializer": {"class_name": "Zeros", "config": {}}, "moving_variance_initializer": {"class_name": "Ones", "config": {}}, "beta_regularizer": null, "gamma_regularizer": null, "beta_constraint": null, "gamma_constraint": null}, "inbound_nodes": [[["conv_dw_7", 0, 0, {}]]]}, {"name": "conv_dw_7_relu", "class_name": "ReLU", "config": {"name": "conv_dw_7_relu", "trainable": true, "max_value": 6.0, "negative_slope": 0.0, "threshold": 0.0}, "inbound_nodes": [[["conv_dw_7_bn", 0, 0, {}]]]}, {"name": "conv_pw_7", "class_name": "Conv2D", "config": {"name": "conv_pw_7", "trainable": true, "filters": 128, "kernel_size": [1, 1], "strides": [1, 1], "padding": "same", "data_format": "channels_last", "dilation_rate": [1, 1], "activation": "linear", "use_bias": false, "kernel_initializer": {"class_name": "VarianceScaling", "config": {"scale": 1.0, "mode": "fan_avg", "distribution": "uniform", "seed": null}}, "bias_initializer": {"class_name": "Zeros", "config": {}}, "kernel_regularizer": null, "bias_regularizer": null, "activity_regularizer": null, "kernel_constraint": null, "bias_constraint": null}, "inbound_nodes": [[["conv_dw_7_relu", 0, 0, {}]]]}, {"name": "conv_pw_7_bn", "class_name": "BatchNormalization", "config": {"name": "conv_pw_7_bn", "trainable": true, "axis": -1, "momentum": 0.99, "epsilon": 0.001, "center": true, "scale": true, "beta_initializer": {"class_name": "Zeros", "config": {}}, "gamma_initializer": {"class_name": "Ones", "config": {}}, "moving_mean_initializer": {"class_name": "Zeros", "config": {}}, "moving_variance_initializer": {"class_name": "Ones", "config": {}}, "beta_regularizer": null, "gamma_regularizer": null, "beta_constraint": null, "gamma_constraint": null}, "inbound_nodes": [[["conv_pw_7", 0, 0, {}]]]}, {"name": "conv_pw_7_relu", "class_name": "ReLU", "config": {"name": "conv_pw_7_relu", "trainable": true, "max_value": 6.0, "negative_slope": 0.0, "threshold": 0.0}, "inbound_nodes": [[["conv_pw_7_bn", 0, 0, {}]]]}, {"name": "conv_dw_8", "class_name": "DepthwiseConv2D", "config": {"name": "conv_dw_8", "trainable": true, "kernel_size": [3, 3], "strides": [1, 1], "padding": "same", "data_format": "channels_last", "dilation_rate": [1, 1], "activation": "linear", "use_bias": false, "bias_initializer": {"class_name": "Zeros", "config": {}}, "bias_regularizer": null, "activity_regularizer": null, "bias_constraint": null, "depth_multiplier": 1, "depthwise_initializer": {"class_name": "VarianceScaling", "config": {"scale": 1.0, "mode": "fan_avg", "distribution": "uniform", "seed": null}}, "depthwise_regularizer": null, "depthwise_constraint": null}, "inbound_nodes": [[["conv_pw_7_relu", 0, 0, {}]]]}, {"name": "conv_dw_8_bn", "class_name": "BatchNormalization", "config": {"name": "conv_dw_8_bn", "trainable": true, "axis": -1, "momentum": 0.99, "epsilon": 0.001, "center": true, "scale": true, "beta_initializer": {"class_name": "Zeros", "config": {}}, "gamma_initializer": {"class_name": "Ones", "config": {}}, "moving_mean_initializer": {"class_name": "Zeros", "config": {}}, "moving_variance_initializer": {"class_name": "Ones", "config": {}}, "beta_regularizer": null, "gamma_regularizer": null, "beta_constraint": null, "gamma_constraint": null}, "inbound_nodes": [[["conv_dw_8", 0, 0, {}]]]}, {"name": "conv_dw_8_relu", "class_name": "ReLU", "config": {"name": "conv_dw_8_relu", "trainable": true, "max_value": 6.0, "negative_slope": 0.0, "threshold": 0.0}, "inbound_nodes": [[["conv_dw_8_bn", 0, 0, {}]]]}, {"name": "conv_pw_8", "class_name": "Conv2D", "config": {"name": "conv_pw_8", "trainable": true, "filters": 128, "kernel_size": [1, 1], "strides": [1, 1], "padding": "same", "data_format": "channels_last", "dilation_rate": [1, 1], "activation": "linear", "use_bias": false, "kernel_initializer": {"class_name": "VarianceScaling", "config": {"scale": 1.0, "mode": "fan_avg", "distribution": "uniform", "seed": null}}, "bias_initializer": {"class_name": "Zeros", "config": {}}, "kernel_regularizer": null, "bias_regularizer": null, "activity_regularizer": null, "kernel_constraint": null, "bias_constraint": null}, "inbound_nodes": [[["conv_dw_8_relu", 0, 0, {}]]]}, {"name": "conv_pw_8_bn", "class_name": "BatchNormalization", "config": {"name": "conv_pw_8_bn", "trainable": true, "axis": -1, "momentum": 0.99, "epsilon": 0.001, "center": true, "scale": true, "beta_initializer": {"class_name": "Zeros", "config": {}}, "gamma_initializer": {"class_name": "Ones", "config": {}}, "moving_mean_initializer": {"class_name": "Zeros", "config": {}}, "moving_variance_initializer": {"class_name": "Ones", "config": {}}, "beta_regularizer": null, "gamma_regularizer": null, "beta_constraint": null, "gamma_constraint": null}, "inbound_nodes": [[["conv_pw_8", 0, 0, {}]]]}, {"name": "conv_pw_8_relu", "class_name": "ReLU", "config": {"name": "conv_pw_8_relu", "trainable": true, "max_value": 6.0, "negative_slope": 0.0, "threshold": 0.0}, "inbound_nodes": [[["conv_pw_8_bn", 0, 0, {}]]]}, {"name": "conv_dw_9", "class_name": "DepthwiseConv2D", "config": {"name": "conv_dw_9", "trainable": true, "kernel_size": [3, 3], "strides": [1, 1], "padding": "same", "data_format": "channels_last", "dilation_rate": [1, 1], "activation": "linear", "use_bias": false, "bias_initializer": {"class_name": "Zeros", "config": {}}, "bias_regularizer": null, "activity_regularizer": null, "bias_constraint": null, "depth_multiplier": 1, "depthwise_initializer": {"class_name": "VarianceScaling", "config": {"scale": 1.0, "mode": "fan_avg", "distribution": "uniform", "seed": null}}, "depthwise_regularizer": null, "depthwise_constraint": null}, "inbound_nodes": [[["conv_pw_8_relu", 0, 0, {}]]]}, {"name": "conv_dw_9_bn", "class_name": "BatchNormalization", "config": {"name": "conv_dw_9_bn", "trainable": true, "axis": -1, "momentum": 0.99, "epsilon": 0.001, "center": true, "scale": true, "beta_initializer": {"class_name": "Zeros", "config": {}}, "gamma_initializer": {"class_name": "Ones", "config": {}}, "moving_mean_initializer": {"class_name": "Zeros", "config": {}}, "moving_variance_initializer": {"class_name": "Ones", "config": {}}, "beta_regularizer": null, "gamma_regularizer": null, "beta_constraint": null, "gamma_constraint": null}, "inbound_nodes": [[["conv_dw_9", 0, 0, {}]]]}, {"name": "conv_dw_9_relu", "class_name": "ReLU", "config": {"name": "conv_dw_9_relu", "trainable": true, "max_value": 6.0, "negative_slope": 0.0, "threshold": 0.0}, "inbound_nodes": [[["conv_dw_9_bn", 0, 0, {}]]]}, {"name": "conv_pw_9", "class_name": "Conv2D", "config": {"name": "conv_pw_9", "trainable": true, "filters": 128, "kernel_size": [1, 1], "strides": [1, 1], "padding": "same", "data_format": "channels_last", "dilation_rate": [1, 1], "activation": "linear", "use_bias": false, "kernel_initializer": {"class_name": "VarianceScaling", "config": {"scale": 1.0, "mode": "fan_avg", "distribution": "uniform", "seed": null}}, "bias_initializer": {"class_name": "Zeros", "config": {}}, "kernel_regularizer": null, "bias_regularizer": null, "activity_regularizer": null, "kernel_constraint": null, "bias_constraint": null}, "inbound_nodes": [[["conv_dw_9_relu", 0, 0, {}]]]}, {"name": "conv_pw_9_bn", "class_name": "BatchNormalization", "config": {"name": "conv_pw_9_bn", "trainable": true, "axis": -1, "momentum": 0.99, "epsilon": 0.001, "center": true, "scale": true, "beta_initializer": {"class_name": "Zeros", "config": {}}, "gamma_initializer": {"class_name": "Ones", "config": {}}, "moving_mean_initializer": {"class_name": "Zeros", "config": {}}, "moving_variance_initializer": {"class_name": "Ones", "config": {}}, "beta_regularizer": null, "gamma_regularizer": null, "beta_constraint": null, "gamma_constraint": null}, "inbound_nodes": [[["conv_pw_9", 0, 0, {}]]]}, {"name": "conv_pw_9_relu", "class_name": "ReLU", "config": {"name": "conv_pw_9_relu", "trainable": true, "max_value": 6.0, "negative_slope": 0.0, "threshold": 0.0}, "inbound_nodes": [[["conv_pw_9_bn", 0, 0, {}]]]}, {"name": "conv_dw_10", "class_name": "DepthwiseConv2D", "config": {"name": "conv_dw_10", "trainable": true, "kernel_size": [3, 3], "strides": [1, 1], "padding": "same", "data_format": "channels_last", "dilation_rate": [1, 1], "activation": "linear", "use_bias": false, "bias_initializer": {"class_name": "Zeros", "config": {}}, "bias_regularizer": null, "activity_regularizer": null, "bias_constraint": null, "depth_multiplier": 1, "depthwise_initializer": {"class_name": "VarianceScaling", "config": {"scale": 1.0, "mode": "fan_avg", "distribution": "uniform", "seed": null}}, "depthwise_regularizer": null, "depthwise_constraint": null}, "inbound_nodes": [[["conv_pw_9_relu", 0, 0, {}]]]}, {"name": "conv_dw_10_bn", "class_name": "BatchNormalization", "config": {"name": "conv_dw_10_bn", "trainable": true, "axis": -1, "momentum": 0.99, "epsilon": 0.001, "center": true, "scale": true, "beta_initializer": {"class_name": "Zeros", "config": {}}, "gamma_initializer": {"class_name": "Ones", "config": {}}, "moving_mean_initializer": {"class_name": "Zeros", "config": {}}, "moving_variance_initializer": {"class_name": "Ones", "config": {}}, "beta_regularizer": null, "gamma_regularizer": null, "beta_constraint": null, "gamma_constraint": null}, "inbound_nodes": [[["conv_dw_10", 0, 0, {}]]]}, {"name": "conv_dw_10_relu", "class_name": "ReLU", "config": {"name": "conv_dw_10_relu", "trainable": true, "max_value": 6.0, "negative_slope": 0.0, "threshold": 0.0}, "inbound_nodes": [[["conv_dw_10_bn", 0, 0, {}]]]}, {"name": "conv_pw_10", "class_name": "Conv2D", "config": {"name": "conv_pw_10", "trainable": true, "filters": 128, "kernel_size": [1, 1], "strides": [1, 1], "padding": "same", "data_format": "channels_last", "dilation_rate": [1, 1], "activation": "linear", "use_bias": false, "kernel_initializer": {"class_name": "VarianceScaling", "config": {"scale": 1.0, "mode": "fan_avg", "distribution": "uniform", "seed": null}}, "bias_initializer": {"class_name": "Zeros", "config": {}}, "kernel_regularizer": null, "bias_regularizer": null, "activity_regularizer": null, "kernel_constraint": null, "bias_constraint": null}, "inbound_nodes": [[["conv_dw_10_relu", 0, 0, {}]]]}, {"name": "conv_pw_10_bn", "class_name": "BatchNormalization", "config": {"name": "conv_pw_10_bn", "trainable": true, "axis": -1, "momentum": 0.99, "epsilon": 0.001, "center": true, "scale": true, "beta_initializer": {"class_name": "Zeros", "config": {}}, "gamma_initializer": {"class_name": "Ones", "config": {}}, "moving_mean_initializer": {"class_name": "Zeros", "config": {}}, "moving_variance_initializer": {"class_name": "Ones", "config": {}}, "beta_regularizer": null, "gamma_regularizer": null, "beta_constraint": null, "gamma_constraint": null}, "inbound_nodes": [[["conv_pw_10", 0, 0, {}]]]}, {"name": "conv_pw_10_relu", "class_name": "ReLU", "config": {"name": "conv_pw_10_relu", "trainable": true, "max_value": 6.0, "negative_slope": 0.0, "threshold": 0.0}, "inbound_nodes": [[["conv_pw_10_bn", 0, 0, {}]]]}, {"name": "conv_dw_11", "class_name": "DepthwiseConv2D", "config": {"name": "conv_dw_11", "trainable": true, "kernel_size": [3, 3], "strides": [1, 1], "padding": "same", "data_format": "channels_last", "dilation_rate": [1, 1], "activation": "linear", "use_bias": false, "bias_initializer": {"class_name": "Zeros", "config": {}}, "bias_regularizer": null, "activity_regularizer": null, "bias_constraint": null, "depth_multiplier": 1, "depthwise_initializer": {"class_name": "VarianceScaling", "config": {"scale": 1.0, "mode": "fan_avg", "distribution": "uniform", "seed": null}}, "depthwise_regularizer": null, "depthwise_constraint": null}, "inbound_nodes": [[["conv_pw_10_relu", 0, 0, {}]]]}, {"name": "conv_dw_11_bn", "class_name": "BatchNormalization", "config": {"name": "conv_dw_11_bn", "trainable": true, "axis": -1, "momentum": 0.99, "epsilon": 0.001, "center": true, "scale": true, "beta_initializer": {"class_name": "Zeros", "config": {}}, "gamma_initializer": {"class_name": "Ones", "config": {}}, "moving_mean_initializer": {"class_name": "Zeros", "config": {}}, "moving_variance_initializer": {"class_name": "Ones", "config": {}}, "beta_regularizer": null, "gamma_regularizer": null, "beta_constraint": null, "gamma_constraint": null}, "inbound_nodes": [[["conv_dw_11", 0, 0, {}]]]}, {"name": "conv_dw_11_relu", "class_name": "ReLU", "config": {"name": "conv_dw_11_relu", "trainable": true, "max_value": 6.0, "negative_slope": 0.0, "threshold": 0.0}, "inbound_nodes": [[["conv_dw_11_bn", 0, 0, {}]]]}, {"name": "conv_pw_11", "class_name": "Conv2D", "config": {"name": "conv_pw_11", "trainable": true, "filters": 128, "kernel_size": [1, 1], "strides": [1, 1], "padding": "same", "data_format": "channels_last", "dilation_rate": [1, 1], "activation": "linear", "use_bias": false, "kernel_initializer": {"class_name": "VarianceScaling", "config": {"scale": 1.0, "mode": "fan_avg", "distribution": "uniform", "seed": null}}, "bias_initializer": {"class_name": "Zeros", "config": {}}, "kernel_regularizer": null, "bias_regularizer": null, "activity_regularizer": null, "kernel_constraint": null, "bias_constraint": null}, "inbound_nodes": [[["conv_dw_11_relu", 0, 0, {}]]]}, {"name": "conv_pw_11_bn", "class_name": "BatchNormalization", "config": {"name": "conv_pw_11_bn", "trainable": true, "axis": -1, "momentum": 0.99, "epsilon": 0.001, "center": true, "scale": true, "beta_initializer": {"class_name": "Zeros", "config": {}}, "gamma_initializer": {"class_name": "Ones", "config": {}}, "moving_mean_initializer": {"class_name": "Zeros", "config": {}}, "moving_variance_initializer": {"class_name": "Ones", "config": {}}, "beta_regularizer": null, "gamma_regularizer": null, "beta_constraint": null, "gamma_constraint": null}, "inbound_nodes": [[["conv_pw_11", 0, 0, {}]]]}, {"name": "conv_pw_11_relu", "class_name": "ReLU", "config": {"name": "conv_pw_11_relu", "trainable": true, "max_value": 6.0, "negative_slope": 0.0, "threshold": 0.0}, "inbound_nodes": [[["conv_pw_11_bn", 0, 0, {}]]]}, {"name": "conv_pad_12", "class_name": "ZeroPadding2D", "config": {"name": "conv_pad_12", "trainable": true, "padding": [[0, 1], [0, 1]], "data_format": "channels_last"}, "inbound_nodes": [[["conv_pw_11_relu", 0, 0, {}]]]}, {"name": "conv_dw_12", "class_name": "DepthwiseConv2D", "config": {"name": "conv_dw_12", "trainable": true, "kernel_size": [3, 3], "strides": [2, 2], "padding": "valid", "data_format": "channels_last", "dilation_rate": [1, 1], "activation": "linear", "use_bias": false, "bias_initializer": {"class_name": "Zeros", "config": {}}, "bias_regularizer": null, "activity_regularizer": null, "bias_constraint": null, "depth_multiplier": 1, "depthwise_initializer": {"class_name": "VarianceScaling", "config": {"scale": 1.0, "mode": "fan_avg", "distribution": "uniform", "seed": null}}, "depthwise_regularizer": null, "depthwise_constraint": null}, "inbound_nodes": [[["conv_pad_12", 0, 0, {}]]]}, {"name": "conv_dw_12_bn", "class_name": "BatchNormalization", "config": {"name": "conv_dw_12_bn", "trainable": true, "axis": -1, "momentum": 0.99, "epsilon": 0.001, "center": true, "scale": true, "beta_initializer": {"class_name": "Zeros", "config": {}}, "gamma_initializer": {"class_name": "Ones", "config": {}}, "moving_mean_initializer": {"class_name": "Zeros", "config": {}}, "moving_variance_initializer": {"class_name": "Ones", "config": {}}, "beta_regularizer": null, "gamma_regularizer": null, "beta_constraint": null, "gamma_constraint": null}, "inbound_nodes": [[["conv_dw_12", 0, 0, {}]]]}, {"name": "conv_dw_12_relu", "class_name": "ReLU", "config": {"name": "conv_dw_12_relu", "trainable": true, "max_value": 6.0, "negative_slope": 0.0, "threshold": 0.0}, "inbound_nodes": [[["conv_dw_12_bn", 0, 0, {}]]]}, {"name": "conv_pw_12", "class_name": "Conv2D", "config": {"name": "conv_pw_12", "trainable": true, "filters": 256, "kernel_size": [1, 1], "strides": [1, 1], "padding": "same", "data_format": "channels_last", "dilation_rate": [1, 1], "activation": "linear", "use_bias": false, "kernel_initializer": {"class_name": "VarianceScaling", "config": {"scale": 1.0, "mode": "fan_avg", "distribution": "uniform", "seed": null}}, "bias_initializer": {"class_name": "Zeros", "config": {}}, "kernel_regularizer": null, "bias_regularizer": null, "activity_regularizer": null, "kernel_constraint": null, "bias_constraint": null}, "inbound_nodes": [[["conv_dw_12_relu", 0, 0, {}]]]}, {"name": "conv_pw_12_bn", "class_name": "BatchNormalization", "config": {"name": "conv_pw_12_bn", "trainable": true, "axis": -1, "momentum": 0.99, "epsilon": 0.001, "center": true, "scale": true, "beta_initializer": {"class_name": "Zeros", "config": {}}, "gamma_initializer": {"class_name": "Ones", "config": {}}, "moving_mean_initializer": {"class_name": "Zeros", "config": {}}, "moving_variance_initializer": {"class_name": "Ones", "config": {}}, "beta_regularizer": null, "gamma_regularizer": null, "beta_constraint": null, "gamma_constraint": null}, "inbound_nodes": [[["conv_pw_12", 0, 0, {}]]]}, {"name": "conv_pw_12_relu", "class_name": "ReLU", "config": {"name": "conv_pw_12_relu", "trainable": true, "max_value": 6.0, "negative_slope": 0.0, "threshold": 0.0}, "inbound_nodes": [[["conv_pw_12_bn", 0, 0, {}]]]}, {"name": "conv_dw_13", "class_name": "DepthwiseConv2D", "config": {"name": "conv_dw_13", "trainable": true, "kernel_size": [3, 3], "strides": [1, 1], "padding": "same", "data_format": "channels_last", "dilation_rate": [1, 1], "activation": "linear", "use_bias": false, "bias_initializer": {"class_name": "Zeros", "config": {}}, "bias_regularizer": null, "activity_regularizer": null, "bias_constraint": null, "depth_multiplier": 1, "depthwise_initializer": {"class_name": "VarianceScaling", "config": {"scale": 1.0, "mode": "fan_avg", "distribution": "uniform", "seed": null}}, "depthwise_regularizer": null, "depthwise_constraint": null}, "inbound_nodes": [[["conv_pw_12_relu", 0, 0, {}]]]}, {"name": "conv_dw_13_bn", "class_name": "BatchNormalization", "config": {"name": "conv_dw_13_bn", "trainable": true, "axis": -1, "momentum": 0.99, "epsilon": 0.001, "center": true, "scale": true, "beta_initializer": {"class_name": "Zeros", "config": {}}, "gamma_initializer": {"class_name": "Ones", "config": {}}, "moving_mean_initializer": {"class_name": "Zeros", "config": {}}, "moving_variance_initializer": {"class_name": "Ones", "config": {}}, "beta_regularizer": null, "gamma_regularizer": null, "beta_constraint": null, "gamma_constraint": null}, "inbound_nodes": [[["conv_dw_13", 0, 0, {}]]]}, {"name": "conv_dw_13_relu", "class_name": "ReLU", "config": {"name": "conv_dw_13_relu", "trainable": true, "max_value": 6.0, "negative_slope": 0.0, "threshold": 0.0}, "inbound_nodes": [[["conv_dw_13_bn", 0, 0, {}]]]}, {"name": "conv_pw_13", "class_name": "Conv2D", "config": {"name": "conv_pw_13", "trainable": true, "filters": 256, "kernel_size": [1, 1], "strides": [1, 1], "padding": "same", "data_format": "channels_last", "dilation_rate": [1, 1], "activation": "linear", "use_bias": false, "kernel_initializer": {"class_name": "VarianceScaling", "config": {"scale": 1.0, "mode": "fan_avg", "distribution": "uniform", "seed": null}}, "bias_initializer": {"class_name": "Zeros", "config": {}}, "kernel_regularizer": null, "bias_regularizer": null, "activity_regularizer": null, "kernel_constraint": null, "bias_constraint": null}, "inbound_nodes": [[["conv_dw_13_relu", 0, 0, {}]]]}, {"name": "conv_pw_13_bn", "class_name": "BatchNormalization", "config": {"name": "conv_pw_13_bn", "trainable": true, "axis": -1, "momentum": 0.99, "epsilon": 0.001, "center": true, "scale": true, "beta_initializer": {"class_name": "Zeros", "config": {}}, "gamma_initializer": {"class_name": "Ones", "config": {}}, "moving_mean_initializer": {"class_name": "Zeros", "config": {}}, "moving_variance_initializer": {"class_name": "Ones", "config": {}}, "beta_regularizer": null, "gamma_regularizer": null, "beta_constraint": null, "gamma_constraint": null}, "inbound_nodes": [[["conv_pw_13", 0, 0, {}]]]}, {"name": "conv_pw_13_relu", "class_name": "ReLU", "config": {"name": "conv_pw_13_relu", "trainable": true, "max_value": 6.0, "negative_slope": 0.0, "threshold": 0.0}, "inbound_nodes": [[["conv_pw_13_bn", 0, 0, {}]]]}], "input_layers": [["input_1", 0, 0]], "output_layers": [["conv_pw_13_relu", 0, 0]]}}, {"class_name": "GlobalAveragePooling2D", "config": {"name": "global_average_pooling2d_1", "trainable": true, "data_format": "channels_last"}}, {"class_name": "Dense", "config": {"name": "dense_1", "trainable": true, "units": 256, "activation": "relu", "use_bias": true, "kernel_initializer": {"class_name": "VarianceScaling", "config": {"scale": 1.0, "mode": "fan_avg", "distribution": "uniform", "seed": null}}, "bias_initializer": {"class_name": "Zeros", "config": {}}, "kernel_regularizer": null, "bias_regularizer": null, "activity_regularizer": null, "kernel_constraint": null, "bias_constraint": null}}, {"class_name": "BatchNormalization", "config": {"name": "batch_normalization_1", "trainable": true, "axis": -1, "momentum": 0.99, "epsilon": 0.001, "center": true, "scale": true, "beta_initializer": {"class_name": "Zeros", "config": {}}, "gamma_initializer": {"class_name": "Ones", "config": {}}, "moving_mean_initializer": {"class_name": "Zeros", "config": {}}, "moving_variance_initializer": {"class_name": "Ones", "config": {}}, "beta_regularizer": null, "gamma_regularizer": null, "beta_constraint": null, "gamma_constraint": null}}, {"class_name": "Dense", "config": {"name": "dense_2", "trainable": true, "units": 3, "activation": "softmax", "use_bias": true, "kernel_initializer": {"class_name": "VarianceScaling", "config": {"scale": 1.0, "mode": "fan_avg", "distribution": "uniform", "seed": null}}, "bias_initializer": {"class_name": "Zeros", "config": {}}, "kernel_regularizer": null, "bias_regularizer": null, "activity_regularizer": null, "kernel_constraint": null, "bias_constraint": null}}]}}, "training_config": {"optimizer_config": {"class_name": "Adam", "config": {"lr": 0.009999999776482582, "beta_1": 0.8999999761581421, "beta_2": 0.9990000128746033, "decay": 0.0, "epsilon": 1e-07, "amsgrad": false}}, "loss": "categorical_crossentropy", "metrics": ["accuracy"], "sample_weight_mode": null, "loss_weights": null}}, "weightsManifest": [{"paths": ["group1-shard1of1.bin"], "weights": [{"name": "batch_normalization_1/gamma", "shape": [256], "dtype": "float32", "quantization": {"dtype": "uint16", "min": -0.2037440768530233, "scale": 3.118213603505101e-05, "original_dtype": "float32"}}, {"name": "batch_normalization_1/beta", "shape": [256], "dtype": "float32", "quantization": {"dtype": "uint16", "min": -0.1650558868307284, "scale": 7.677017992126902e-06, "original_dtype": "float32"}}, {"name": "batch_normalization_1/moving_mean", "shape": [256], "dtype": "float32", "quantization": {"dtype": "uint16", "min": -0.0, "scale": 0.0007501196604785671, "original_dtype": "float32"}}, {"name": "batch_normalization_1/moving_variance", "shape": [256], "dtype": "float32", "quantization": {"dtype": "uint16", "min": -0.0, "scale": 0.01565559627608339, "original_dtype": "float32"}}, {"name": "dense_1/kernel", "shape": [256, 256], "dtype": "float32", "quantization": {"dtype": "uint16", "min": -4.504134884369567, "scale": 0.00012735776973278197, "original_dtype": "float32"}}, {"name": "dense_1/bias", "shape": [256], "dtype": "float32", "quantization": {"dtype": "uint16", "min": -0.7874440929732698, "scale": 8.214522146602021e-05, "original_dtype": "float32"}}, {"name": "dense_2/kernel", "shape": [256, 3], "dtype": "float32", "quantization": {"dtype": "uint16", "min": -1.027748518427768, "scale": 3.983984643283203e-05, "original_dtype": "float32"}}, {"name": "dense_2/bias", "shape": [3], "dtype": "float32", "quantization": {"dtype": "uint16", "min": -0.7646359992552979, "scale": 2.6044347534156404e-05, "original_dtype": "float32"}}, {"name": "conv1/kernel", "shape": [3, 3, 1, 8], "dtype": "float32", "quantization": {"dtype": "uint16", "min": -1.7910143270075636, "scale": 5.771507885432984e-05, "original_dtype": "float32"}}, {"name": "conv1_bn/gamma", "shape": [8], "dtype": "float32", "quantization": {"dtype": "uint16", "min": 0.6856312155723572, "scale": 2.6229435258665846e-05, "original_dtype": "float32"}}, {"name": "conv1_bn/beta", "shape": [8], "dtype": "float32", "quantization": {"dtype": "uint16", "min": -0.537859641748025, "scale": 2.6740560890326394e-05, "original_dtype": "float32"}}, {"name": "conv_dw_1/depthwise_kernel", "shape": [3, 3, 8, 1], "dtype": "float32", "quantization": {"dtype": "uint16", "min": -2.308823121977387, "scale": 7.462500798272043e-05, "original_dtype": "float32"}}, {"name": "conv_dw_1_bn/gamma", "shape": [8], "dtype": "float32", "quantization": {"dtype": "uint16", "min": -0.12875235078718075, "scale": 2.600007083747592e-05, "original_dtype": "float32"}}, {"name": "conv_dw_1_bn/beta", "shape": [8], "dtype": "float32", "quantization": {"dtype": "uint16", "min": -1.022989658288191, "scale": 4.647418036926181e-05, "original_dtype": "float32"}}, {"name": "conv_pw_1/kernel", "shape": [1, 1, 8, 16], "dtype": "float32", "quantization": {"dtype": "uint16", "min": -1.9409770299652178, "scale": 6.82025731742232e-05, "original_dtype": "float32"}}, {"name": "conv_pw_1_bn/gamma", "shape": [16], "dtype": "float32", "quantization": {"dtype": "uint16", "min": -0.21758453917874435, "scale": 3.948186158206212e-05, "original_dtype": "float32"}}, {"name": "conv_pw_1_bn/beta", "shape": [16], "dtype": "float32", "quantization": {"dtype": "uint16", "min": -1.338325948555864, "scale": 4.25594971874281e-05, "original_dtype": "float32"}}, {"name": "conv_dw_2/depthwise_kernel", "shape": [3, 3, 16, 1], "dtype": "float32", "quantization": {"dtype": "uint16", "min": -1.6782648101900355, "scale": 6.157866038710044e-05, "original_dtype": "float32"}}, {"name": "conv_dw_2_bn/gamma", "shape": [16], "dtype": "float32", "quantization": {"dtype": "uint16", "min": 0.041585177183151245, "scale": 2.335753595109589e-05, "original_dtype": "float32"}}, {"name": "conv_dw_2_bn/beta", "shape": [16], "dtype": "float32", "quantization": {"dtype": "uint16", "min": -1.052181976672995, "scale": 4.820773282658274e-05, "original_dtype": "float32"}}, {"name": "conv_pw_2/kernel", "shape": [1, 1, 16, 32], "dtype": "float32", "quantization": {"dtype": "uint16", "min": -1.5442232735507901, "scale": 6.514060885644099e-05, "original_dtype": "float32"}}, {"name": "conv_pw_2_bn/gamma", "shape": [32], "dtype": "float32", "quantization": {"dtype": "uint16", "min": 0.01145985722541809, "scale": 3.0462665180233364e-05, "original_dtype": "float32"}}, {"name": "conv_pw_2_bn/beta", "shape": [32], "dtype": "float32", "quantization": {"dtype": "uint16", "min": -1.4235559195523368, "scale": 4.470405475293107e-05, "original_dtype": "float32"}}, {"name": "conv_dw_3/depthwise_kernel", "shape": [3, 3, 32, 1], "dtype": "float32", "quantization": {"dtype": "uint16", "min": -1.5615337891592136, "scale": 6.564928063395331e-05, "original_dtype": "float32"}}, {"name": "conv_dw_3_bn/gamma", "shape": [32], "dtype": "float32", "quantization": {"dtype": "uint16", "min": 0.058522388339042664, "scale": 2.5690282437988175e-05, "original_dtype": "float32"}}, {"name": "conv_dw_3_bn/beta", "shape": [32], "dtype": "float32", "quantization": {"dtype": "uint16", "min": -0.9445596257690945, "scale": 3.936813344596734e-05, "original_dtype": "float32"}}, {"name": "conv_pw_3/kernel", "shape": [1, 1, 32, 32], "dtype": "float32", "quantization": {"dtype": "uint16", "min": -2.1034700337359986, "scale": 7.967689521727268e-05, "original_dtype": "float32"}}, {"name": "conv_pw_3_bn/gamma", "shape": [32], "dtype": "float32", "quantization": {"dtype": "uint16", "min": 0.019076667726039886, "scale": 3.801236777390369e-05, "original_dtype": "float32"}}, {"name": "conv_pw_3_bn/beta", "shape": [32], "dtype": "float32", "quantization": {"dtype": "uint16", "min": -1.5875542230461284, "scale": 4.4969385690908094e-05, "original_dtype": "float32"}}, {"name": "conv_dw_4/depthwise_kernel", "shape": [3, 3, 32, 1], "dtype": "float32", "quantization": {"dtype": "uint16", "min": -2.140190116064203, "scale": 8.714838814497121e-05, "original_dtype": "float32"}}, {"name": "conv_dw_4_bn/gamma", "shape": [32], "dtype": "float32", "quantization": {"dtype": "uint16", "min": -0.4274527500230005, "scale": 3.384960009684831e-05, "original_dtype": "float32"}}, {"name": "conv_dw_4_bn/beta", "shape": [32], "dtype": "float32", "quantization": {"dtype": "uint16", "min": -0.8776309964376157, "scale": 4.990793269477484e-05, "original_dtype": "float32"}}, {"name": "conv_pw_4/kernel", "shape": [1, 1, 32, 64], "dtype": "float32", "quantization": {"dtype": "uint16", "min": -2.641761113271803, "scale": 8.066199851216155e-05, "original_dtype": "float32"}}, {"name": "conv_pw_4_bn/gamma", "shape": [64], "dtype": "float32", "quantization": {"dtype": "uint16", "min": -0.9167462286836742, "scale": 7.240709491222448e-05, "original_dtype": "float32"}}, {"name": "conv_pw_4_bn/beta", "shape": [64], "dtype": "float32", "quantization": {"dtype": "uint16", "min": -1.0294307724456542, "scale": 4.186039250348301e-05, "original_dtype": "float32"}}, {"name": "conv_dw_5/depthwise_kernel", "shape": [3, 3, 64, 1], "dtype": "float32", "quantization": {"dtype": "uint16", "min": -2.1605238606821184, "scale": 6.42267564636915e-05, "original_dtype": "float32"}}, {"name": "conv_dw_5_bn/gamma", "shape": [64], "dtype": "float32", "quantization": {"dtype": "uint16", "min": 0.030396511778235435, "scale": 3.906524813133364e-05, "original_dtype": "float32"}}, {"name": "conv_dw_5_bn/beta", "shape": [64], "dtype": "float32", "quantization": {"dtype": "uint16", "min": -1.1360071307490307, "scale": 4.518184507612579e-05, "original_dtype": "float32"}}, {"name": "conv_pw_5/kernel", "shape": [1, 1, 64, 64], "dtype": "float32", "quantization": {"dtype": "uint16", "min": -2.9556518283144615, "scale": 0.00010241343826453436, "original_dtype": "float32"}}, {"name": "conv_pw_5_bn/gamma", "shape": [64], "dtype": "float32", "quantization": {"dtype": "uint16", "min": -0.708458275420993, "scale": 7.164104312073951e-05, "original_dtype": "float32"}}, {"name": "conv_pw_5_bn/beta", "shape": [64], "dtype": "float32", "quantization": {"dtype": "uint16", "min": -1.1801266431572, "scale": 5.0411219271986326e-05, "original_dtype": "float32"}}, {"name": "conv_dw_6/depthwise_kernel", "shape": [3, 3, 64, 1], "dtype": "float32", "quantization": {"dtype": "uint16", "min": -2.139774646545844, "scale": 6.51238593464359e-05, "original_dtype": "float32"}}, {"name": "conv_dw_6_bn/gamma", "shape": [64], "dtype": "float32", "quantization": {"dtype": "uint16", "min": -0.06537016105056583, "scale": 4.225608341988741e-05, "original_dtype": "float32"}}, {"name": "conv_dw_6_bn/beta", "shape": [64], "dtype": "float32", "quantization": {"dtype": "uint16", "min": -1.0755841336388914, "scale": 4.665296610882201e-05, "original_dtype": "float32"}}, {"name": "conv_pw_6/kernel", "shape": [1, 1, 64, 128], "dtype": "float32", "quantization": {"dtype": "uint16", "min": -3.1665801899578843, "scale": 9.646561231821983e-05, "original_dtype": "float32"}}, {"name": "conv_pw_6_bn/gamma", "shape": [128], "dtype": "float32", "quantization": {"dtype": "uint16", "min": -0.7837629458319816, "scale": 8.414890979514511e-05, "original_dtype": "float32"}}, {"name": "conv_pw_6_bn/beta", "shape": [128], "dtype": "float32", "quantization": {"dtype": "uint16", "min": -1.633606634826148, "scale": 5.044019621533788e-05, "original_dtype": "float32"}}, {"name": "conv_dw_7/depthwise_kernel", "shape": [3, 3, 128, 1], "dtype": "float32", "quantization": {"dtype": "uint16", "min": -2.750165436147252, "scale": 9.137065803339818e-05, "original_dtype": "float32"}}, {"name": "conv_dw_7_bn/gamma", "shape": [128], "dtype": "float32", "quantization": {"dtype": "uint16", "min": -0.0621118769850012, "scale": 4.2747334470062767e-05, "original_dtype": "float32"}}, {"name": "conv_dw_7_bn/beta", "shape": [128], "dtype": "float32", "quantization": {"dtype": "uint16", "min": -1.2442823449925227, "scale": 4.9689802523562264e-05, "original_dtype": "float32"}}, {"name": "conv_pw_7/kernel", "shape": [1, 1, 128, 128], "dtype": "float32", "quantization": {"dtype": "uint16", "min": -3.8991690854618057, "scale": 0.00012021115690781249, "original_dtype": "float32"}}, {"name": "conv_pw_7_bn/gamma", "shape": [128], "dtype": "float32", "quantization": {"dtype": "uint16", "min": 0.1444181650876999, "scale": 4.8218497088001496e-05, "original_dtype": "float32"}}, {"name": "conv_pw_7_bn/beta", "shape": [128], "dtype": "float32", "quantization": {"dtype": "uint16", "min": -1.3796384414510012, "scale": 4.6513551176663e-05, "original_dtype": "float32"}}, {"name": "conv_dw_8/depthwise_kernel", "shape": [3, 3, 128, 1], "dtype": "float32", "quantization": {"dtype": "uint16", "min": -3.079754823003798, "scale": 9.11493673198709e-05, "original_dtype": "float32"}}, {"name": "conv_dw_8_bn/gamma", "shape": [128], "dtype": "float32", "quantization": {"dtype": "uint16", "min": -0.01661142665735665, "scale": 4.705786588486303e-05, "original_dtype": "float32"}}, {"name": "conv_dw_8_bn/beta", "shape": [128], "dtype": "float32", "quantization": {"dtype": "uint16", "min": -1.2491865844214327, "scale": 4.1528809322521035e-05, "original_dtype": "float32"}}, {"name": "conv_pw_8/kernel", "shape": [1, 1, 128, 128], "dtype": "float32", "quantization": {"dtype": "uint16", "min": -3.6925816636723257, "scale": 0.00011748589448527921, "original_dtype": "float32"}}, {"name": "conv_pw_8_bn/gamma", "shape": [128], "dtype": "float32", "quantization": {"dtype": "uint16", "min": -0.7507013701988756, "scale": 6.174038738373844e-05, "original_dtype": "float32"}}, {"name": "conv_pw_8_bn/beta", "shape": [128], "dtype": "float32", "quantization": {"dtype": "uint16", "min": -1.5404574716592296, "scale": 4.58988579840066e-05, "original_dtype": "float32"}}, {"name": "conv_dw_9/depthwise_kernel", "shape": [3, 3, 128, 1], "dtype": "float32", "quantization": {"dtype": "uint16", "min": -2.996646089918364, "scale": 9.246339257361733e-05, "original_dtype": "float32"}}, {"name": "conv_dw_9_bn/gamma", "shape": [128], "dtype": "float32", "quantization": {"dtype": "uint16", "min": -0.1405292785721585, "scale": 4.160132580584917e-05, "original_dtype": "float32"}}, {"name": "conv_dw_9_bn/beta", "shape": [128], "dtype": "float32", "quantization": {"dtype": "uint16", "min": -1.0840273227809523, "scale": 3.7892453956269306e-05, "original_dtype": "float32"}}, {"name": "conv_pw_9/kernel", "shape": [1, 1, 128, 128], "dtype": "float32", "quantization": {"dtype": "uint16", "min": -3.264369381295377, "scale": 0.00011258387243646755, "original_dtype": "float32"}}, {"name": "conv_pw_9_bn/gamma", "shape": [128], "dtype": "float32", "quantization": {"dtype": "uint16", "min": -1.3324760328743817, "scale": 7.579499618170544e-05, "original_dtype": "float32"}}, {"name": "conv_pw_9_bn/beta", "shape": [128], "dtype": "float32", "quantization": {"dtype": "uint16", "min": -1.5168829917962285, "scale": 6.466653842333754e-05, "original_dtype": "float32"}}, {"name": "conv_dw_10/depthwise_kernel", "shape": [3, 3, 128, 1], "dtype": "float32", "quantization": {"dtype": "uint16", "min": -3.305171992892103, "scale": 0.00010213757703622073, "original_dtype": "float32"}}, {"name": "conv_dw_10_bn/gamma", "shape": [128], "dtype": "float32", "quantization": {"dtype": "uint16", "min": -0.0536012948322207, "scale": 4.2106280308107386e-05, "original_dtype": "float32"}}, {"name": "conv_dw_10_bn/beta", "shape": [128], "dtype": "float32", "quantization": {"dtype": "uint16", "min": -1.6272584006725774, "scale": 4.858502972778125e-05, "original_dtype": "float32"}}, {"name": "conv_pw_10/kernel", "shape": [1, 1, 128, 128], "dtype": "float32", "quantization": {"dtype": "uint16", "min": -3.4411672983943005, "scale": 9.967175375508473e-05, "original_dtype": "float32"}}, {"name": "conv_pw_10_bn/gamma", "shape": [128], "dtype": "float32", "quantization": {"dtype": "uint16", "min": -0.20759121584084628, "scale": 5.1105666135117254e-05, "original_dtype": "float32"}}, {"name": "conv_pw_10_bn/beta", "shape": [128], "dtype": "float32", "quantization": {"dtype": "uint16", "min": -1.7033076298503333, "scale": 6.206258443615716e-05, "original_dtype": "float32"}}, {"name": "conv_dw_11/depthwise_kernel", "shape": [3, 3, 128, 1], "dtype": "float32", "quantization": {"dtype": "uint16", "min": -2.8014712291478, "scale": 0.00010088121098839756, "original_dtype": "float32"}}, {"name": "conv_dw_11_bn/gamma", "shape": [128], "dtype": "float32", "quantization": {"dtype": "uint16", "min": 0.024417372420430183, "scale": 4.898934491718262e-05, "original_dtype": "float32"}}, {"name": "conv_dw_11_bn/beta", "shape": [128], "dtype": "float32", "quantization": {"dtype": "uint16", "min": -1.2923006169063107, "scale": 4.154773073901462e-05, "original_dtype": "float32"}}, {"name": "conv_pw_11/kernel", "shape": [1, 1, 128, 128], "dtype": "float32", "quantization": {"dtype": "uint16", "min": -3.6728164824630354, "scale": 0.00011210599116241485, "original_dtype": "float32"}}, {"name": "conv_pw_11_bn/gamma", "shape": [128], "dtype": "float32", "quantization": {"dtype": "uint16", "min": -0.21587654628451342, "scale": 5.531041411337776e-05, "original_dtype": "float32"}}, {"name": "conv_pw_11_bn/beta", "shape": [128], "dtype": "float32", "quantization": {"dtype": "uint16", "min": -1.6034920019225598, "scale": 5.295898018107404e-05, "original_dtype": "float32"}}, {"name": "conv_dw_12/depthwise_kernel", "shape": [3, 3, 128, 1], "dtype": "float32", "quantization": {"dtype": "uint16", "min": -2.806562935948563, "scale": 0.00010631725645687412, "original_dtype": "float32"}}, {"name": "conv_dw_12_bn/gamma", "shape": [128], "dtype": "float32", "quantization": {"dtype": "uint16", "min": 0.032830674201250076, "scale": 4.5836839219239064e-05, "original_dtype": "float32"}}, {"name": "conv_dw_12_bn/beta", "shape": [128], "dtype": "float32", "quantization": {"dtype": "uint16", "min": -1.7255021880181782, "scale": 5.472746322490971e-05, "original_dtype": "float32"}}, {"name": "conv_pw_12/kernel", "shape": [1, 1, 128, 256], "dtype": "float32", "quantization": {"dtype": "uint16", "min": -3.343882519911235, "scale": 0.00010712421976329442, "original_dtype": "float32"}}, {"name": "conv_pw_12_bn/gamma", "shape": [256], "dtype": "float32", "quantization": {"dtype": "uint16", "min": -0.0642206130151828, "scale": 5.775234983379748e-05, "original_dtype": "float32"}}, {"name": "conv_pw_12_bn/beta", "shape": [256], "dtype": "float32", "quantization": {"dtype": "uint16", "min": -2.016687422933045, "scale": 7.988779206675033e-05, "original_dtype": "float32"}}, {"name": "conv_dw_13/depthwise_kernel", "shape": [3, 3, 256, 1], "dtype": "float32", "quantization": {"dtype": "uint16", "min": -2.6793599123411616, "scale": 9.492524312127688e-05, "original_dtype": "float32"}}, {"name": "conv_dw_13_bn/gamma", "shape": [256], "dtype": "float32", "quantization": {"dtype": "uint16", "min": -0.009195543891025724, "scale": 4.814420885353782e-05, "original_dtype": "float32"}}, {"name": "conv_dw_13_bn/beta", "shape": [256], "dtype": "float32", "quantization": {"dtype": "uint16", "min": -1.9111100065086966, "scale": 4.9978033068560804e-05, "original_dtype": "float32"}}, {"name": "conv_pw_13/kernel", "shape": [1, 1, 256, 256], "dtype": "float32", "quantization": {"dtype": "uint16", "min": -4.029315264521324, "scale": 0.00012862527180365589, "original_dtype": "float32"}}, {"name": "conv_pw_13_bn/gamma", "shape": [256], "dtype": "float32", "quantization": {"dtype": "uint16", "min": -0.041539681714277944, "scale": 3.8569806605643405e-05, "original_dtype": "float32"}}, {"name": "conv_pw_13_bn/beta", "shape": [256], "dtype": "float32", "quantization": {"dtype": "uint16", "min": -1.7771050640435662, "scale": 5.615753085933216e-05, "original_dtype": "float32"}}, {"name": "conv1_bn/moving_mean", "shape": [8], "dtype": "float32", "quantization": {"dtype": "uint16", "min": -1.5050020137185718, "scale": 4.98328536710232e-05, "original_dtype": "float32"}}, {"name": "conv1_bn/moving_variance", "shape": [8], "dtype": "float32", "quantization": {"dtype": "uint16", "min": 0.053090650588274, "scale": 1.8370089388970535e-05, "original_dtype": "float32"}}, {"name": "conv_dw_1_bn/moving_mean", "shape": [8], "dtype": "float32", "quantization": {"dtype": "uint16", "min": -4.769283918884387, "scale": 0.00011236915201292054, "original_dtype": "float32"}}, {"name": "conv_dw_1_bn/moving_variance", "shape": [8], "dtype": "float32", "quantization": {"dtype": "uint16", "min": 0.7230936884880066, "scale": 0.0004771242618669932, "original_dtype": "float32"}}, {"name": "conv_pw_1_bn/moving_mean", "shape": [16], "dtype": "float32", "quantization": {"dtype": "uint16", "min": -5.139054202982515, "scale": 0.00017463144634302416, "original_dtype": "float32"}}, {"name": "conv_pw_1_bn/moving_variance", "shape": [16], "dtype": "float32", "quantization": {"dtype": "uint16", "min": 0.2864361107349396, "scale": 0.000123418858606646, "original_dtype": "float32"}}, {"name": "conv_dw_2_bn/moving_mean", "shape": [16], "dtype": "float32", "quantization": {"dtype": "uint16", "min": -3.083533695410416, "scale": 0.00013882287481588402, "original_dtype": "float32"}}, {"name": "conv_dw_2_bn/moving_variance", "shape": [16], "dtype": "float32", "quantization": {"dtype": "uint16", "min": 0.07993399351835251, "scale": 0.00047062902919595096, "original_dtype": "float32"}}, {"name": "conv_pw_2_bn/moving_mean", "shape": [32], "dtype": "float32", "quantization": {"dtype": "uint16", "min": -2.713325029009948, "scale": 0.00015091634846264797, "original_dtype": "float32"}}, {"name": "conv_pw_2_bn/moving_variance", "shape": [32], "dtype": "float32", "quantization": {"dtype": "uint16", "min": 0.29093122482299805, "scale": 0.0005221311002117078, "original_dtype": "float32"}}, {"name": "conv_dw_3_bn/moving_mean", "shape": [32], "dtype": "float32", "quantization": {"dtype": "uint16", "min": -2.9707235807574675, "scale": 0.00010309642827546304, "original_dtype": "float32"}}, {"name": "conv_dw_3_bn/moving_variance", "shape": [32], "dtype": "float32", "quantization": {"dtype": "uint16", "min": -0.0, "scale": 0.00027406168191376745, "original_dtype": "float32"}}, {"name": "conv_pw_3_bn/moving_mean", "shape": [32], "dtype": "float32", "quantization": {"dtype": "uint16", "min": -4.328994634246594, "scale": 0.0001497870189352131, "original_dtype": "float32"}}, {"name": "conv_pw_3_bn/moving_variance", "shape": [32], "dtype": "float32", "quantization": {"dtype": "uint16", "min": 0.854525089263916, "scale": 0.000533119142578479, "original_dtype": "float32"}}, {"name": "conv_dw_4_bn/moving_mean", "shape": [32], "dtype": "float32", "quantization": {"dtype": "uint16", "min": -4.299419727159545, "scale": 0.0001439039972942245, "original_dtype": "float32"}}, {"name": "conv_dw_4_bn/moving_variance", "shape": [32], "dtype": "float32", "quantization": {"dtype": "uint16", "min": -0.0, "scale": 0.0007975526429736078, "original_dtype": "float32"}}, {"name": "conv_pw_4_bn/moving_mean", "shape": [64], "dtype": "float32", "quantization": {"dtype": "uint16", "min": -12.62798947904515, "scale": 0.0003795722588308981, "original_dtype": "float32"}}, {"name": "conv_pw_4_bn/moving_variance", "shape": [64], "dtype": "float32", "quantization": {"dtype": "uint16", "min": 2.948653221130371, "scale": 0.001259128116238915, "original_dtype": "float32"}}, {"name": "conv_dw_5_bn/moving_mean", "shape": [64], "dtype": "float32", "quantization": {"dtype": "uint16", "min": -7.036534486763209, "scale": 0.00017413285373959287, "original_dtype": "float32"}}, {"name": "conv_dw_5_bn/moving_variance", "shape": [64], "dtype": "float32", "quantization": {"dtype": "uint16", "min": -0.0, "scale": 0.0012426540345360543, "original_dtype": "float32"}}, {"name": "conv_pw_5_bn/moving_mean", "shape": [64], "dtype": "float32", "quantization": {"dtype": "uint16", "min": -11.58490196701554, "scale": 0.00036048486065953697, "original_dtype": "float32"}}, {"name": "conv_pw_5_bn/moving_variance", "shape": [64], "dtype": "float32", "quantization": {"dtype": "uint16", "min": 3.0611188411712646, "scale": 0.003166000825039826, "original_dtype": "float32"}}, {"name": "conv_dw_6_bn/moving_mean", "shape": [64], "dtype": "float32", "quantization": {"dtype": "uint16", "min": -8.861752223611978, "scale": 0.00025839779045376814, "original_dtype": "float32"}}, {"name": "conv_dw_6_bn/moving_variance", "shape": [64], "dtype": "float32", "quantization": {"dtype": "uint16", "min": -0.0, "scale": 0.0012437478895908436, "original_dtype": "float32"}}, {"name": "conv_pw_6_bn/moving_mean", "shape": [128], "dtype": "float32", "quantization": {"dtype": "uint16", "min": -16.6336853097194, "scale": 0.000476009767334003, "original_dtype": "float32"}}, {"name": "conv_pw_6_bn/moving_variance", "shape": [128], "dtype": "float32", "quantization": {"dtype": "uint16", "min": 2.166046142578125, "scale": 0.005056153368220464, "original_dtype": "float32"}}, {"name": "conv_dw_7_bn/moving_mean", "shape": [128], "dtype": "float32", "quantization": {"dtype": "uint16", "min": -9.304326004500684, "scale": 0.00020257622478773532, "original_dtype": "float32"}}, {"name": "conv_dw_7_bn/moving_variance", "shape": [128], "dtype": "float32", "quantization": {"dtype": "uint16", "min": -0.0, "scale": 0.0011112766407024872, "original_dtype": "float32"}}, {"name": "conv_pw_7_bn/moving_mean", "shape": [128], "dtype": "float32", "quantization": {"dtype": "uint16", "min": -27.480846483930986, "scale": 0.000632412355224628, "original_dtype": "float32"}}, {"name": "conv_pw_7_bn/moving_variance", "shape": [128], "dtype": "float32", "quantization": {"dtype": "uint16", "min": 7.3234381675720215, "scale": 0.006486348864997089, "original_dtype": "float32"}}, {"name": "conv_dw_8_bn/moving_mean", "shape": [128], "dtype": "float32", "quantization": {"dtype": "uint16", "min": -7.533996209787579, "scale": 0.0002281646338518346, "original_dtype": "float32"}}, {"name": "conv_dw_8_bn/moving_variance", "shape": [128], "dtype": "float32", "quantization": {"dtype": "uint16", "min": -0.0, "scale": 0.000759123649896942, "original_dtype": "float32"}}, {"name": "conv_pw_8_bn/moving_mean", "shape": [128], "dtype": "float32", "quantization": {"dtype": "uint16", "min": -29.394453147107605, "scale": 0.0006679646672523657, "original_dtype": "float32"}}, {"name": "conv_pw_8_bn/moving_variance", "shape": [128], "dtype": "float32", "quantization": {"dtype": "uint16", "min": 4.757487773895264, "scale": 0.005718874296498461, "original_dtype": "float32"}}, {"name": "conv_dw_9_bn/moving_mean", "shape": [128], "dtype": "float32", "quantization": {"dtype": "uint16", "min": -8.160810859559684, "scale": 0.00025711439381095413, "original_dtype": "float32"}}, {"name": "conv_dw_9_bn/moving_variance", "shape": [128], "dtype": "float32", "quantization": {"dtype": "uint16", "min": -0.0, "scale": 0.0009094124774579244, "original_dtype": "float32"}}, {"name": "conv_pw_9_bn/moving_mean", "shape": [128], "dtype": "float32", "quantization": {"dtype": "uint16", "min": -34.14728998580168, "scale": 0.0007271259738895634, "original_dtype": "float32"}}, {"name": "conv_pw_9_bn/moving_variance", "shape": [128], "dtype": "float32", "quantization": {"dtype": "uint16", "min": 4.835331916809082, "scale": 0.007001560307516789, "original_dtype": "float32"}}, {"name": "conv_dw_10_bn/moving_mean", "shape": [128], "dtype": "float32", "quantization": {"dtype": "uint16", "min": -7.5621886137085355, "scale": 0.0002266911062594363, "original_dtype": "float32"}}, {"name": "conv_dw_10_bn/moving_variance", "shape": [128], "dtype": "float32", "quantization": {"dtype": "uint16", "min": -0.0, "scale": 0.0011803256007420296, "original_dtype": "float32"}}, {"name": "conv_pw_10_bn/moving_mean", "shape": [128], "dtype": "float32", "quantization": {"dtype": "uint16", "min": -23.14725948516224, "scale": 0.0006587529024179589, "original_dtype": "float32"}}, {"name": "conv_pw_10_bn/moving_variance", "shape": [128], "dtype": "float32", "quantization": {"dtype": "uint16", "min": 7.01657247543335, "scale": 0.006677348053299827, "original_dtype": "float32"}}, {"name": "conv_dw_11_bn/moving_mean", "shape": [128], "dtype": "float32", "quantization": {"dtype": "uint16", "min": -8.479963896339505, "scale": 0.00024238163540671998, "original_dtype": "float32"}}, {"name": "conv_dw_11_bn/moving_variance", "shape": [128], "dtype": "float32", "quantization": {"dtype": "uint16", "min": -0.0, "scale": 0.001211447383606744, "original_dtype": "float32"}}, {"name": "conv_pw_11_bn/moving_mean", "shape": [128], "dtype": "float32", "quantization": {"dtype": "uint16", "min": -20.960036695548304, "scale": 0.0005245385694223656, "original_dtype": "float32"}}, {"name": "conv_pw_11_bn/moving_variance", "shape": [128], "dtype": "float32", "quantization": {"dtype": "uint16", "min": 6.8856706619262695, "scale": 0.005663110833878538, "original_dtype": "float32"}}, {"name": "conv_dw_12_bn/moving_mean", "shape": [128], "dtype": "float32", "quantization": {"dtype": "uint16", "min": -8.05888494228329, "scale": 0.00025182441542038905, "original_dtype": "float32"}}, {"name": "conv_dw_12_bn/moving_variance", "shape": [128], "dtype": "float32", "quantization": {"dtype": "uint16", "min": -0.0, "scale": 0.0017869803382883432, "original_dtype": "float32"}}, {"name": "conv_pw_12_bn/moving_mean", "shape": [256], "dtype": "float32", "quantization": {"dtype": "uint16", "min": -24.135455101888056, "scale": 0.0005839552660687633, "original_dtype": "float32"}}, {"name": "conv_pw_12_bn/moving_variance", "shape": [256], "dtype": "float32", "quantization": {"dtype": "uint16", "min": 4.183371067047119, "scale": 0.009471726448464796, "original_dtype": "float32"}}, {"name": "conv_dw_13_bn/moving_mean", "shape": [256], "dtype": "float32", "quantization": {"dtype": "uint16", "min": -7.971160989751021, "scale": 0.00021286514246137263, "original_dtype": "float32"}}, {"name": "conv_dw_13_bn/moving_variance", "shape": [256], "dtype": "float32", "quantization": {"dtype": "uint16", "min": -0.0, "scale": 0.0010203681585489862, "original_dtype": "float32"}}, {"name": "conv_pw_13_bn/moving_mean", "shape": [256], "dtype": "float32", "quantization": {"dtype": "uint16", "min": -27.013274105831936, "scale": 0.0008002984566520097, "original_dtype": "float32"}}, {"name": "conv_pw_13_bn/moving_variance", "shape": [256], "dtype": "float32", "quantization": {"dtype": "uint16", "min": 23.350778579711914, "scale": 0.011773564612337023, "original_dtype": "float32"}}]}]}